mlruns/1/models/m-c56bfb8c72864e77b062714ff74c48ad/artifacts/data/model.pth (torch, 7881 bytes, 3 tensors)

weight f4 [16, 29]
-0.14960325 -0.039162405 0.15755637 -0.0650444 -0.09384217 -0.006679428 -0.18513563 0.12549272
0.04694204 -0.15624933 0.048692785 -0.07105569 -0.135423 -0.021066241 0.09939204 -0.137144
0.18833666 -0.095131844 -0.027415605 0.18906645 0.16835998 -0.10963412 -0.08357576 -0.112838954
-0.18445961 0.052454293 0.116878785 -0.07257418 -0.15535256 0.054302353 0.09568022 0.1731912
0.17223158 0.009273285 -0.117934816 -0.092262655 0.17990136 0.09111498 -0.12546156 0.062865205
-0.15493298 0.14968985 -0.11616283 0.11362267 -0.031597875 -0.06920441 0.0033676834 0.0119337635
0.17105874 0.07835278 0.12982374 0.0047928863 -0.039614026 -0.06653485 -0.07705766 0.011669073
0.18093178 -0.039548922 0.06741441 -0.098848395 -0.13007745 0.0066845375 0.15077344 -0.17614703
0.15020303 0.17937644 -0.17824064 -0.051662378 0.16215603 -0.02304835 -0.08520661 -0.11074516
-0.043643996 -0.0006044344 -0.074755356 -0.16745599 0.15600182 -0.1210408 0.11227871 -0.14336728
0.09200148 0.13843311 0.03640774 0.092267975 0.08259716 0.14076012 -0.12377225 0.09983906
-0.1542743 -0.079458065 -0.0030139512 0.110306844 0.14083791 -0.053942032 -0.084146194 0.028478485
0.049212627 -0.14219539 -0.17356184 0.024166765 0.11760169 0.015271827 -0.05215848 -0.13686806
-0.07577777 -0.06836786 0.09318134 -0.15578477 0.09271891 -0.06800689 -0.14086784 -0.17312898
0.029162794 -0.09093112 0.10890038 0.13898309 -0.12854418 0.050645187 -0.054822832 -0.08668434
-0.060212035 0.063658625 0.11234207 -0.019523453 0.16769777 0.12426415 -0.13152498 0.10850313
0.012185608 -0.0064737564 -0.15685356 0.0402066 0.1384849 -0.09945359 0.16914068 -0.13071562
0.08130933 0.05996211 0.1703108 0.031144781 -0.09326571 0.17413315 -0.010895623 -0.07118786
0.017718768 0.063127205 0.10343001 -0.010713026 -0.037932537 -0.13392797 -0.039018545 0.03205347
0.0699487 0.17129096 0.08543923 -0.006183055 -0.16686305 -0.11061145 0.07156661 -0.08137224
0.009101899 0.03967769 0.13634679 0.104556195 -0.17478569 0.065416835 0.051805675 -0.036789976
0.083708204 0.086461484 0.060485676 -0.11163968 0.09176085 0.075602025 0.13094501 0.0012664172
-0.08426205 -0.15431704 0.1399686 0.14960179 0.023587713 -0.015669659 -0.04000702 0.1714605
0.104415864 -0.066190355 0.056984108 -0.07212257 -0.033833943 -0.14292917 -0.14885154 -0.16081655
0.0938399 0.038025293 -0.0027081924 -0.008178105 -0.17374307 0.080654755 -0.10004041 0.017695349
0.043194607 0.070073225 0.025448216 -0.17457391 -0.18338068 -0.106209956 0.049006365 0.14666681
-0.06303367 -0.08686911 0.14526871 -0.11013623 -0.08418978 0.07706964 -0.05116515 -0.17240545
-0.17850016 -0.013804002 -0.17793036 0.032869287 0.13789575 -0.07916679 0.036613997 0.001309654
-0.069055 -0.1140569 -0.011063651 0.12770367 -0.1121366 0.17058705 0.09701905 -0.07219773
0.02335935 -0.14654496 -0.069735415 0.003914329 0.15580449 0.063988194 0.16459812 -0.007859344
-0.13608451 0.16798088 -0.11237253 -0.08472485 -0.09666187 0.103730865 -0.09576321 -0.03036948
0.1170511 -0.12780881 -0.02577376 0.035650562 0.12056783 0.05183593 0.083633974 -0.016446799
00000000: 9831 19be c268 20bd 7556 213e 0036 85bd
00000010: 5330 c0bd 1adf dabb 3294 3dbe 2a81 003e
00000020: 4c46 403d d3ff 1fbe 1672 473d a585 91bd
00000030: 54ac 0abe 1c93 acbc 0e8e cb3d 7a6f 0cbe
00000040: 53db 403e 7cd4 c2bd b196 e0bc a39a 413e
00000050: 8f66 2c3e da87 e0bd c529 abbd 1c18 e7bd
00000060: fbe2 3cbe 50da 563d 255e ef3d c6a1 94bd
00000070: be14 1fbe 256c 5e3d fef3 c33d 0959 313e
00000080: 7a5d 303e faee 173c cf87 f1bd 34f4 bcbd
00000090: 1038 383e 7e9a ba3d ff78 00be 79bf 803d
000000a0: c0a6 1ebe 4c48 193e c7e6 edbd 01b3 e83d
000000b0: c66c 01bd 0bbb 8dbd 5ab4 5c3b d585 433c
000000c0: 062a 2f3e 6c77 a03d 84f0 043e a50d 9d3b
000000d0: 5142 22bd 6c43 88bd 68d0 9dbd a42f 3f3c
000000e0: 2e46 393e 0dfe 21bd 9110 8a3d 0771 cabd
000000f0: 0633 05be f709 db3b 5a64 1a3e e35f 34be
00000100: d3ce 193e 75ae 373e b784 36be ee9b 53bd
00000110: 3b0c 263e e5cf bcbc ce80 aebd 5cce e2bd
00000120: 0cc4 32bd e872 1eba 5619 99bd 9579 2bbe
00000130: f1be 1f3e 3de4 f7bd 61f2 e53d dfce 12be
00000140: 466b bc3d 69c1 0d3e 4820 153d fef6 bc3d
00000150: b328 a93d 6c23 103e 4e7c fdbd 6c78 cc3d
00000160: 15fa 1dbe e9ba a2bd b685 45bb 8ee8 e13d
00000170: d037 103e 52f2 5cbd d754 acbd b64b e93c
00000180: 2e93 493d ab9b 11be 32ba 31be 61f9 c53c
00000190: 28d9 f03d af36 7a3c 21a4 55bd 2427 0cbe
000001a0: 6031 9bbd 7304 8cbd dcd5 be3d 0b86 1fbe
000001b0: 69e3 bd3d 3247 8bbd a93f 10be b948 31be
000001c0: d0e6 ee3c 183a babd 2a07 df3d 9551 0e3e
000001d0: 16a1 03be 5471 4f3d e88d 60bd 8f87 b1bd
000001e0: e5a0 76bd 745f 823d 9913 e63d a6ef 9fbc
000001f0: f7b8 2b3e 347e fe3d 7cae 06be e436 de3d
00000200: 25a6 473c ce21 d4bb 389e 20be adaf 243d
00000210: fcce 0d3e 53ae cbbd 3733 2d3e 51da 05be
00000220: 8285 a63d d49a 753d f465 2e3e 5723 ff3c
00000230: 1802 bfbd f64f 323e 8e83 32bc f1ca 91bd
00000240: f326 913c d648 813d 1dd3 d33d b085 2fbc
00000250: 265f 1bbd 6a24 09be e9d1 1fbd 804a 033d
00000260: 4441 8f3d e666 2f3e c3fa ae3d 3a9b cabb
00000270: 26de 2abe 4288 e2bd 8491 923d 7da6 a6bd
00000280: 2220 153c 1385 223d 7e9e 0b3e 8f21 d63d
00000290: 05fb 32be 43f9 853d 3032 543d 16b1 16bd
000002a0: 356f ab3d b812 b13d d4bf 773d 58a3 e4bd
000002b0: 1ded bb3d 3cd5 9a3d 7316 063e e9fd a53a
000002c0: 9591 acbd 4905 1ebe ee53 0f3e 3631 193e
000002d0: 053b c13c a85d 80bc 67de 23bd 5793 2f3e
000002e0: fcd7 d53d cf8e 87bd 2b68 693d ffb4 93bd
000002f0: 7695 0abd 065c 12be 8a6c 18be 18ad 24be
00000300: 222f c03d 69c0 1b3d ee7b 31bb 75fd 05bc
00000310: b4e9 31be 522e a53d fde1 ccbd d6f5 903c
00000320: d4ec 303d 8d82 8f3d c778 d03c 81c3 32be
00000330: 25c8 3bbe 9b84 d9bd e6ba 483d d32f 163e
00000340: cc17 81bd 6fe8 b1bd 52c1 143e 1b8f e1bd
00000350: b16b acbd b0d6 9d3d 8c92 51bd 0e8b 30be
00000360: bfc8 36be 2e2a 62bc 6033 36be f2a1 063d
00000370: 8b34 0d3e 3322 a2bd 8ff8 153d b2a8 ab3a
00000380: b56c 8dbd aa96 e9bd 5144 35bc c0c4 023e
00000390: e0a7 e5bd 5fae 2e3e ecb1 c63d 67dc 93bd
000003a0: 1c5c bf3c e20f 16be 71d1 8ebd c643 803b
000003b0: 368b 1f3e 3e0c 833d 698c 283e 7ac4 00bc
000003c0: bd59 0bbe 2e03 2c3e 9223 e6bd 3984 adbd
000003d0: a9f6 c5bd d970 d43d 801f c4bd 6ac9 f8bc
000003e0: 7db8 ef3d 50e0 02be 7e23 d3bc 5306 123d
000003f0: 44ec f63d ea51 543d 4a48 ab3d 70bb 86bc

bias f4 [16]
0.100949496 0.03662466 0.13211186 -0.0892436 -0.0021975525 0.0029008533 -0.08100479 0.029687064
-0.12665911 -0.09014072 -0.03749165 0.0020257472 -0.034500267 -0.0028832252 0.018988768 0.18930438
00000000: 9cbe ce3d bd03 163d 5548 073e 59c5 b6bd
00000010: d004 10bb 3e1c 3e3b d7e5 a5bd 4932 f33c
00000020: edb2 01be b39b b8bd d890 19bd 66c2 043b
00000030: 2750 0dbd 7ef4 3cbb 558e 9b3c 02d9 413e

weight f4 [1, 16]
-0.12688243 -0.107501596 0.090671234 -0.034020662 0.067865744 0.121853285 0.088512465 -0.020722527
0.18588823 0.08177361 0.2104641 -0.022713259 -0.018636668 0.19767052 0.20803744 -0.20276013
00000000: 78ed 01be cc29 dcbd d7b1 b93d 4059 0bbd
00000010: 32fd 8a3d 378e f93d 0646 b53d 4ac2 a9bc
00000020: 7c59 3e3e ec78 a73d e783 573e 2811 babc
00000030: edab 98bc 246a 4a3e c407 553e 5aa0 4fbe
